data/models/model_lstm_v1.pt (torch, 308581 bytes, 9 tensors)

lstm.weight_ih_l0 f4 [256, 101]
00000000: 0f07 0d3e fb84 123e 2453 473c ecc9 1c3e
00000010: 0dd3 c8be 7a96 e1bd 79ac 4cbe a6a8 84bd
00000020: f7d0 fdbc a84b c4be a483 de3d b0a6 bf3c
00000030: 0f0a f0bc 14bd 81be 3ad3 ee3d 4096 7f3d
00000040: 940b 573e 3603 843b 3646 c5bc ee77 9b3d
00000050: e2b3 0cbe 2414 c63c 15af 08be 2e45 843e
00000060: 8231 c43d 1c61 1cbd 7876 37be 6b62 5bbe
00000070: 4a28 203c f57d 5fbe 6bfb 1d3e 4ad7 43be
00000080: 704f 313d d5d8 803a f8f4 46b9 7095 453e
00000090: af7c 8fbc 9f6e a43d a9b6 573d 6cf0 02be
000000a0: 663c 083d c4ba c9bd dcbe b03d e042 8a3d
000000b0: e092 463d b79a 0abd 002d 84bd 9b72 35bd
000000c0: 95e7 c4bd 33ba 73be 198d 85be 111e 80bc
000000d0: 7a61 50be fc85 82bd 876c d8bd f113 b3bd
000000e0: 36f3 21be 74b0 05be a74a 4bbd 49b2 47be
000000f0: 0c82 30be 0649 e1bd 8e68 a53d cbce 91ba
00000100: 71c1 a03d e342 65be d0ef 1c3e 3e74 aabe
00000110: 6893 b33d d8a4 0e3c 9e03 973e 9f21 183e
00000120: 1352 673e 92d7 f5bb cdf7 97bd d8b4 5fbd
00000130: 2d57 4bbd 4582 adbd a441 b8bd a39a f3bc
00000140: 12cc 2abe cb0d d43d c831 df3d 5fa0 bd3b
00000150: d8cc 8a3d ff49 073e 0b55 913e 6e30 dc3d
00000160: 10c3 e13d 6888 58bd 0e5f 66bd 8eb7 05be
00000170: 8730 543d b78c 913d 6eb6 77be dfe9 e0bd
00000180: 6f0e c93c 0b28 d3bd 2c83 35bd 48b4 f7bd
00000190: 849a 92bd bcf9 cfbd 42cd 1abe 8c20 5fbe
000001a0: 8dfd 03be 31cd ddbd 79e7 f7bd 9245 abbd
000001b0: 4225 f4bd e035 bebd bbde 3f3b 7068 c13c
000001c0: 1cc7 1d3d dc7e 0abe da79 4bbe 2d68 52ba
000001d0: 3316 2e3e 35c9 6b3d 3a8f 59bd 708f 56be
000001e0: c908 0fbe cafe 383d 07cd 0abe 6048 0dbe
000001f0: 79e2 dbbc dc1e 6abc 97fc 6fbc 14c8 f3bd
00000200: 7676 b83d 03d0 cfbc 7d14 b03d b20b c0bd
00000210: b5c2 7fbe 1ade 46bd 46fb e4bc 0dd3 38be
00000220: 4aa1 c1bd a27a 54be af20 0c3d bba5 28be
00000230: 071f 9ebc c265 8abd 9ff9 e73d b194 72be
00000240: 9751 c8bd f74d cc3d 0ebf c63d 7cba ad3d
00000250: 67f5 b1bb 6ebf 98be ea63 cb3c ee16 8cbd
00000260: dd62 d4bc 07ce 3abe 0e4a ba3d 8873 e0bd
00000270: c5b1 283d 01a3 b23d df75 bb3c dc11 b4bd
00000280: 3af9 9d3c 3a24 553d 9492 5bbd ebbf 78be
00000290: 2531 aabd 8931 1ebe 31ec 623e 8520 043f
000002a0: bced 113e d84a eebb 820a e6bc 8e43 2a3e
000002b0: e7e2 603e 5829 053e f20e 0d3e 65a1 1ebe
000002c0: bbbd 64be 1aa0 21be 5980 a73d a7ba 0cbe
000002d0: 6440 793c ac5a cf3d a36f d33d 6d5c f1bd
000002e0: 8b2d dd3d a05d 903d 6edb a33d a05f df3c
000002f0: 8210 ab3c 2c66 ff3d 90dd 1fbd caa2 84bd
00000300: 2412 b63b 07a3 aa3d 0b2d 2ebe e858 0cbe
00000310: 3b58 f43d bb00 bbbd 1604 d8bd c87a 0f3d
00000320: 8483 e8bd 84f2 3cbd d7b7 13be 7ff6 48be
00000330: 7fbe 81be c872 a6be 9dca 01bd f436 87be
00000340: ae7c 46be f821 e1bd c67a 97bd 4747 903d
00000350: 284a e2bd e4f2 99bd f98f a2bd d649 ea3d
00000360: b587 35bd 145e 99bd 0641 11bc 7842 f63a
00000370: 16ca adbe aa49 16be a44a af3d a845 94be
00000380: f505 b6bd d76f 653d fa85 9bbb 3bbe 813e
00000390: 6fb5 83be b8dd 8abe 56bb fc3c 6c2e 0ebe
000003a0: dd2a 3fbe 744a 4cbd 878c 723e 7e11 c33d
000003b0: a2e6 78be cb97 c7be fb7c 1cbe 6707 f9bd
000003c0: aa1e 4abe d97a 95be 945c 4dbc 6051 0ebc
000003d0: 4220 84be 2d34 93be 29e6 25be f66d 89bd
000003e0: b539 43be b4e0 98bd 8afd b23d cd35 c83c
000003f0: 48e0 32be 660b 68be b029 ba3d 653b 713c
0.13772224 0.1430854 0.012165818 0.15311402 -0.3922352 -0.11015029 -0.19987668 -0.0647748
-0.030983431 -0.3833897 0.10864952 0.023394912 -0.029301671 -0.25339568 0.11661382 0.06239915
0.2100051 0.004028703 -0.02408133 0.07591234 -0.13740495 0.024179526 -0.13348038 0.2583403
0.09579755 -0.03817855 -0.17916286 -0.21424262 0.009775231 -0.21825393 0.1542794 -0.19125095
0.043288648 0.0009830246 -0.0001897401 0.19295287 -0.017515508 0.08028912 0.052664433 -0.12787026
0.033260725 -0.09850076 0.086301535 0.06751037 0.048479915 -0.033838954 -0.064538956 -0.04429875
-0.09614483 -0.23801498 -0.2608421 -0.015639337 -0.20349684 -0.06373212 -0.10567575 -0.08744038
-0.15815434 -0.13055593 -0.04963174 -0.19501604 -0.17237109 -0.11000256 0.08076583 -0.0011124251
0.07849396 -0.22388797 0.15325856 -0.3329181 0.0876835 0.008706294 0.29494947 0.14856575
0.22589903 -0.0075025046 -0.07420311 -0.054615825 -0.049643684 -0.084721126 -0.08996895 -0.029736822
-0.16679409 0.10354193 0.10898167 0.00578694 0.06777352 0.13211821 0.28385195 0.10751425
0.11023533 -0.052864462 -0.056242995 -0.13058302 0.05180409 0.07106917 -0.24190685 -0.10982107
0.024543015 -0.10310372 -0.04431455 -0.12094933 -0.07158378 -0.10155055 -0.15117362 -0.2178976
-0.1288969 -0.10830153 -0.12104697 -0.08362879 -0.11921169 -0.092876196 0.0029277045 0.02360937
0.038519964 -0.13524956 -0.19870701 -0.00080263877 0.17000656 0.057564933 -0.053115107 -0.20953155
-0.13968195 0.04516486 -0.13554774 -0.1379714 -0.026841389 -0.014289584 -0.014647624 -0.11903396
0.0900697 -0.025367742 0.08597658 -0.09377231 -0.24976619 -0.048551656 -0.027951848 -0.1804926
-0.094545916 -0.20749906 0.034210857 -0.16469471 -0.019301904 -0.0675769 0.11326908 -0.23689534
-0.09781187 0.09975808 0.097044095 0.08482835 -0.0054308656 -0.2983355 0.024827916 -0.06840311
-0.025926048 -0.18242656 0.09096156 -0.10959536 0.04118516 0.08722497 0.022883354 -0.08792469
0.01928388 0.0520365 -0.053606585 -0.24291961 -0.08310155 -0.15448584 0.22160412 0.5161212
0.14250845 -0.0072721057 -0.028081182 0.16627333 0.21961556 0.13004053 0.13775232 -0.15491255
-0.22338001 -0.1578373 0.08178777 -0.13743077 0.015213106 0.10124716 0.103240274 -0.11785207
0.10799702 0.070491076 0.08000837 0.027267277 0.020881895 0.124706596 -0.039029658 -0.06476362
0.0055563617 0.08331876 -0.1700937 -0.1370579 0.11930891 -0.09130999 -0.10547654 0.035029203
-0.113532096 -0.04612972 -0.14425598 -0.19625281 -0.2534065 -0.32509446 -0.031687368 -0.26409113
-0.19383499 -0.10992807 -0.07396464 0.07044845 -0.110493004 -0.07517031 -0.07937617 0.11439864
-0.044318873 -0.07488647 -0.0088656 0.001878812 -0.33943242 -0.14676538 0.085591584 -0.28959394
-0.08887855 0.056014862 -0.004746196 0.25340447 -0.2572436 -0.27122283 0.030851047 -0.13884896
-0.18668695 -0.04987569 0.2368642 0.09524821 -0.2430673 -0.38982996 -0.15282051 -0.12159615
-0.1973826 -0.29195288 -0.012534279 -0.0086863935 -0.2580586 -0.28750744 -0.1620108 -0.067104265
-0.19064982 -0.07464734 0.08739765 0.024439717 -0.17468369 -0.22660598 0.090899825 0.014723633

lstm.weight_hh_l0 f4 [256, 64]
00000000: 4f89 9a3e 6008 ce3b cea4 cc3d 826c 8f3e
00000010: aab6 27be 5c64 8c3d 25bf 2dbe 2ab8 523e
00000020: cd9f b33d 925f 96bc 5541 e73c 396f 9d3b
00000030: f279 7e3d 3d78 83bc 9a1a adbc ce7e 693e
00000040: be0a bdbc 1960 94be d449 03be 3e3a 4a3e
00000050: 33ba 04be 6e09 18be 2e2d 05b9 2a13 223e
00000060: 2029 c2bd 0cf1 643c e522 73be c92e 83be
00000070: abc3 983b b2cd dfbd 5046 5c3e cc1e f83c
00000080: 32f1 583e 4090 5b3d a999 46be 446b a5bd
00000090: 6cfa 923c 0fa6 943c d109 b5bd 120b 71be
000000a0: 2710 a3bd 0940 023e 2adb 323d 88c4 21be
000000b0: 98f6 7a3d 01ea 953d b423 36bd c4bc 9cbe
000000c0: b664 eabb 4f7f 9a3e b009 0d3e 2af6 53be
000000d0: dd5c ce3d 3b6a 253d 9296 c43d a312 92be
000000e0: 76f2 aebe e8ee 34bd 0c49 e8bc ca91 963d
000000f0: 522f 263e a9c2 a53c a9a9 76be 7fd2 95bd
00000100: 0cb5 533e e32e 003e f1f4 c13d 3617 6a3e
00000110: 2f82 693e b9d1 5bbd dd39 a2be e694 923e
00000120: 00fa bf3d 4c42 923d ce95 d0bd 3d36 1b3e
00000130: 89f3 23be 1379 03be efda 7cbe f0e7 e8bd
00000140: 8a60 2b3c 0e23 93be cca7 ae3d a06a cf3a
00000150: dbc7 f3bc 3f3c 79be 8fa5 b7be 47b9 9d3d
00000160: 6e8e 3b3e c5e0 8abd 95e3 2d3c 806d 023d
00000170: 1773 babd fd0d 113d 114f 953d adf1 9fbe
00000180: 665c b33e c131 353e 8a38 d3bd 5f21 d53c
00000190: 734b a2bd a354 6ebd 49fb 873b 2645 dabc
000001a0: d147 62be 39d4 493d 6cc4 203d c58f 3b3d
000001b0: e3d5 2e3e 9eda 98bd 2406 383e 4485 573c
000001c0: b605 e73d 5a4c 22bd 0de9 46bc 5b58 81bd
000001d0: f675 c1bd 89e5 2bbe 2714 903d 794c 943d
000001e0: 1000 61bd 1b77 3cbc eb4c 76be d76c 4a3d
000001f0: cd5e ab3d 7420 77bd 2725 263e 1577 693b
00000200: e661 4b3e 3add 603e ca61 b2bd 52a6 ea3d
00000210: d318 1abe 12ef 5f3e 84f6 adbd 5c33 ef3d
00000220: ccec 37be 86ec a4bd 2a8c 88bd 9f0a 853e
00000230: 6680 363d 4c2d 7bbd 6fbf 8bbe 9ef4 18bd
00000240: 2263 33be f183 943d 843c 0b3e 8ac4 23be
00000250: 0e24 1f3e 92bd 583d 6285 cdbb 90a1 aebc
00000260: e176 b63d 4401 46be 39a2 1ebe e91c 93bc
00000270: 527a 58be b1b1 79bc 8ec2 8cbd a6ce 873d
00000280: f8bb 00be e9ba c53c 88c8 a6bb 3ca7 d1bb
00000290: b863 26bb 27c6 24be 6632 68bd 5223 80be
000002a0: 2df3 ee3d e4e3 733c d17e 34bd f01a 5dbe
000002b0: 8f2e b53d 9eef babd a30d 8e3e 68d9 a0be
000002c0: bdf7 b93e 9422 b03d db86 6cbe f842 2a3b
000002d0: 9a13 18be 90d5 9fbe bbfe 82bd 6182 0dbe
000002e0: 9e2f b8be e6df 8dba 7770 563d e6b3 71be
000002f0: e61c 95be 7bc9 04be 2dd0 56ba e388 1bbe
00000300: 6354 703d 4706 ad3d d911 cb3d 09e2 eabd
00000310: b3e5 6bbb ceac d13d 8420 2ebe 2b5f 26bc
00000320: 1450 cfbd 7a6d 9ebc 95d6 bd3c c921 a9be
00000330: c880 14be c8ad 9fbd b505 743b 96f1 db3d
00000340: f522 97bd 5576 eabd 0445 13be c3d1 953b
00000350: bf9a 0a3d cf33 8cbd 6aa7 1abe 0484 0e3c
00000360: 95ee 203c a0f5 3d3e ea05 bd3d 4853 163e
00000370: ce6c 613d 6dc9 0d3d 0ddc 7a3d b42a b03d
00000380: 3626 70bd 307c aebc 6f4d 1dbe 2711 123e
00000390: e9c3 0abe 5630 f5bd 62be 243e ae59 fbbd
000003a0: 3df6 873d dfad 17be c09c e6bd 5f68 a0bd
000003b0: e4ac e5bd 4a9d 70be 113e a53d eaa2 ae3d
000003c0: c020 0d3e f76a a83c b858 2c3e 9abe c63d
000003d0: 6117 9cbd 0737 3ebe 7823 863d fbd4 473e
000003e0: d9d7 63bd 15d7 103c f98c b13e 75f5 943e
000003f0: 989b 393e b149 ea3c e6b9 1fbe 8158 443d
0.30182883 0.0062876195 0.099923715 0.28012472 -0.16378275 0.068550795 -0.16967447 0.20578066
0.08770714 -0.018356118 0.028229395 0.0048045185 0.062128015 -0.016048545 -0.021130849 0.22802278
-0.023076411 -0.28979567 -0.12821132 0.1974878 -0.12961654 -0.14847347 -0.00012700699 0.15827623
-0.094805 0.013973486 -0.2374378 -0.25621632 0.0046619973 -0.10927905 0.21511197 0.030288123
0.21185759 0.053604364 -0.19394554 -0.080771 0.017941676 0.01814559 -0.08839763 -0.23539379
-0.07962065 0.1271974 0.043666042 -0.15797627 0.061270326 0.07320023 -0.044467643 -0.30612767
-0.007153119 0.30175254 0.13773227 -0.20699373 0.10076306 0.040384512 0.095990315 -0.28529844
-0.34169358 -0.04417315 -0.028355144 0.07352026 0.16228989 0.020234423 -0.24088158 -0.073155396
0.20674533 0.12517886 0.09470547 0.22860417 0.22803567 -0.053666804 -0.3168477 0.28629225
0.093738556 0.071415514 -0.10184823 0.15157409 -0.1601087 -0.12839155 -0.24692892 -0.113723636
0.010460028 -0.28737682 0.085280985 0.0015824623 -0.029758384 -0.24339388 -0.358685 0.077013545
0.18316051 -0.06781153 0.010613342 0.03184271 -0.09103983 0.03541373 0.07290471 -0.3123907
0.35031432 0.17694761 -0.10313518 0.02601689 -0.07924547 -0.058186185 0.0041498286 -0.0266443
-0.22097708 0.049274657 0.039249822 0.045791406 0.17073779 -0.07463573 0.17971092 0.013154332
0.11280386 -0.039623596 -0.012140525 -0.063156806 -0.094463274 -0.1678678 0.07035094 0.072411485
-0.0549317 -0.011503006 -0.2405278 0.049420204 0.08367691 -0.060333684 0.1622511 0.0035623957
0.19861564 0.21959391 -0.08710058 0.11457504 -0.15048532 0.21868542 -0.08494285 0.11679718
-0.17961425 -0.08052926 -0.06667359 0.25984666 0.044556044 -0.061322495 -0.2729449 -0.03734266
-0.17518285 0.07251728 0.13597304 -0.15992942 0.15541098 0.052915163 -0.006272004 -0.021317273
0.08909393 -0.1933642 -0.1549157 -0.017958121 -0.21140411 -0.015240119 -0.06873046 0.06631212
-0.12571704 0.024136977 -0.005089823 -0.0063981097 -0.0025389027 -0.16091214 -0.05668869 -0.25026947
0.11667476 0.014885876 -0.044066254 -0.21592307 0.08846771 -0.091277346 0.2774478 -0.31415868
0.36321822 0.08600345 -0.23098318 0.0025979858 -0.14851227 -0.31217623 -0.06396242 -0.13819267
-0.3597383 -0.0010824173 0.05235335 -0.23603782 -0.2912361 -0.12967484 -0.0008194473 -0.15188937
0.058674227 0.08448463 0.099155135 -0.11468894 -0.0035995066 0.10238038 -0.17004591 -0.010154526
-0.101226956 -0.019339312 0.02317361 -0.3303359 -0.14502251 -0.07796818 0.0037234847 0.10739438
-0.073797144 -0.11448351 -0.14381796 0.0045721247 0.033838984 -0.06845819 -0.15102926 0.008698467
0.009822507 0.1855073 0.09229644 0.14680207 0.055035405 0.034615923 0.061245013 0.08601895
-0.05863019 -0.021299452 -0.1536157 0.14264356 -0.13551296 -0.1197211 0.1608825 -0.122729644
0.06638763 -0.1481242 -0.112603664 -0.07832407 -0.11214617 -0.23497501 0.08068479 0.08527167
0.13782024 0.020558817 0.16830719 0.09704323 -0.07621647 -0.18575679 0.06549734 0.1951484
-0.05562577 0.008840342 0.34677866 0.2909352 0.1812576 0.028599592 -0.15598258 0.047935966

lstm.bias_ih_l0 f4 [256]
00000000: 91aa 283d d3f1 bbbd e026 313e e5a9 253e
00000010: 1c98 cabc 96e3 38bd b681 20bd 503a 103e
00000020: ecdd 23be 5129 b2bd e250 c23c 8fcf 8b3d
00000030: 5822 853d 2a90 2a3c 4445 f7bd 98fb 88be
00000040: 353d acbc d7cf c33d 7927 a5bd dd38 a5bd
00000050: de14 d43d 9283 d9bd 46d1 263d b6a2 223e
00000060: 2d8d 48bd 942f d7bc f564 dc3d dacb 55bd
00000070: 66a7 2cbe 4ec9 e63d 4870 ce3d 743f 3e3e
00000080: 834e c43d 3214 173e a842 b33d a811 66bc
00000090: eef3 7b3c 7255 a6bb 9770 23bd fc92 b73d
000000a0: c177 21bd da95 28bd ff45 e33d c18b 71be
000000b0: 9902 0ebe 06fb b93c ed69 89bd 61c7 913c
000000c0: aff4 8d3d 9d38 47be 5fe1 3bbe 2111 8cbe
000000d0: 49c0 a0bb f72d aabc f585 3dbe 3a60 0abe
000000e0: 21da edbd a14d a6bd 149b 753e 6a7f 85be
000000f0: 2667 e0bc d045 2cbd 9e9e 683e 6cd6 b2be
00000100: 90bc 25bd de7a 8c3d 7767 a6bd acca 3ebe
00000110: ecb1 c8bd 2e9b 653c 5b26 423d e0b0 7b3d
00000120: 8aa0 8abe d74a 5dbe 4b77 e2bd 1be6 823d
00000130: e622 8bbd 636a 2abe 90fc 8dbd 3d04 40be
00000140: d0a2 703d 59ab 9fbd 721d ab3d e276 d03c
00000150: 042b 44bd 82f3 06bd d657 603e 5f82 81bd
00000160: 04fd 54be 9673 f63d ee84 d8bc f88a 05be
00000170: 6092 56be b57b 54bb 9fa1 cdbd 37b2 1cbc
00000180: 73ad 2b3d def3 38be 7bc3 dcbd 6cd1 b43d
00000190: cb16 11bd c2c5 8dbd a2e7 d7bd a39f e2bc
000001a0: 0f82 90bd fc5f 99be f50a 823b f893 883d
000001b0: 3507 96be 299e 1cbd bde0 613d 75ba 47be
000001c0: 3433 3abd 9ccf 99bd 6868 db3c 7c34 46be
000001d0: 00aa 48bd d032 5d3e 2d96 d1bd ebc3 8c3d
000001e0: 2d0c d0bd 2037 593e 9370 32bd 45a7 e3bc
000001f0: a522 5dbe 8d7d 01be 0b31 3fbd f1b4 92be
00000200: b265 df3d 1cbe dbbd 3c46 26be 6e30 25be
00000210: b272 ffbd 98c3 a6bd 5609 ca3d 9000 e4bd
00000220: 3666 06be 78dc d13d 7b5d fbbc 3bf8 8f3d
00000230: a29f d03d 5e7a cabc 15eb 2bbe 190a dfbd
00000240: 8a6d 4abd ea2f 4d3d 1c0b 233e 6aea b33c
00000250: da1e 163b 7cf8 6f3e af24 f43c 9e2b 46bd
00000260: ff17 c5bd 09a3 0e3d ea5b 5d3d faee 0cbd
00000270: edf3 053e cfa0 b63d 1adb f7bd 8b0e 023e
00000280: a801 313d 3478 0bbd 4781 23be f0a1 02be
00000290: d6fc d43d 8ac3 44bd e025 8c3d ec0c d3bd
000002a0: 3876 823c 6170 873d 8309 8cbd 3801 65bd
000002b0: cddc 31be 605f 003e fe50 153e 6723 2abd
000002c0: 2927 1dbe 43d5 ea3d 4dc3 07be a344 623e
000002d0: fdc2 1b3d b477 5a3d 7ab2 8fbd a37d 13be
000002e0: c0ff 6d3d 0f25 c4bd 7d94 08bd 3364 d63d
000002f0: 502d 94bd 819d 743d 8794 8b3d d1c5 b53d
00000300: eaf3 033e bac3 aabd d276 1e3e 4a93 943e
00000310: 0e64 9b3c bb63 f23d 9c46 cebd 3a26 17be
00000320: 3eb6 30be eddc c9bd 14e5 33be d663 423e
00000330: bf77 583d 6ba2 eabc 5e73 033e 173a 7fbe
00000340: 703d 06bd 2e47 3a3d 7874 593c 37dd cabc
00000350: 621d d3bc 88aa 833e 8959 943b 68e2 5f3e
00000360: 2352 6bbe af2d 183d a295 453d 96dc b93d
00000370: afb6 8abe 3cb1 b9bd 4364 183d 8219 2dbd
00000380: 9bb7 b4bc d6fd f4bd cf1e 343e 862f 0e3e
00000390: 0b42 9d3d 2635 073e dac0 203e 0089 653e
000003a0: a3d9 b2bd a238 1fbd ea42 9b3d 118b bbbe
000003b0: a4c9 63be a252 99bd b062 76bb 5bc4 8abd
000003c0: 58cb 933d a49e 2ebe 33db dc3d 5529 b8bd
000003d0: 8d26 87bc cbed 333b 7612 60be deea 7a3d
000003e0: 3ab4 893c 2c2d 4cbe 3a67 883e 2e04 e0bb
000003f0: 742f 0abd 4531 183e 135c 123d 3cf7 cfbb
0.04117829 -0.09176984 0.17299986 0.16178091 -0.024730735 -0.045138918 -0.039186202 0.14084744
-0.16002625 -0.08699287 0.023720209 0.06826698 0.06500691 0.010410348 -0.12073758 -0.2675445
-0.02102528 0.09561127 -0.080641694 -0.080674864 0.103555426 -0.10620798 0.040726922 0.15882382
-0.04896276 -0.026267804 0.107614435 -0.05219636 -0.16860732 0.112688646 0.1008001 0.18578893
0.095852874 0.14753798 0.08752948 -0.0140422955 0.015377982 -0.005076104 -0.039902296 0.08963582
-0.039420847 -0.041158535 0.11097335 -0.23588468 -0.13868178 0.022702705 -0.06709657 0.017795267
0.06931435 -0.1945519 -0.18347691 -0.27356818 -0.0049057347 -0.02077387 -0.18508132 -0.1351327
-0.116138704 -0.08120275 0.23984939 -0.26073772 -0.027392935 -0.042058766 0.22716758 -0.34929216
-0.04046303 0.068593726 -0.08125203 -0.18632 -0.09799561 0.0140140485 0.04739986 0.061447978
-0.27075607 -0.2161058 -0.110579096 0.063915454 -0.06793766 -0.16642146 -0.06932938 -0.18751617
0.05874902 -0.07796354 0.083552256 0.025447313 -0.047892585 -0.03294707 0.21908507 -0.063236944
-0.20799643 0.12033765 -0.026430573 -0.13041294 -0.20954275 -0.0032422368 -0.100405924 -0.009563974
0.04191346 -0.18061778 -0.107794724 0.088290066 -0.035422128 -0.06922485 -0.10542227 -0.027664011
-0.07056057 -0.29956043 0.0039685913 0.06668848 -0.29302374 -0.03823677 0.055145968 -0.19504721
-0.045458987 -0.075103015 0.026783183 -0.19355959 -0.04899025 0.21601415 -0.10233722 0.06873306
-0.10158572 0.21212435 -0.04356439 -0.027789721 -0.21595247 -0.1264555 -0.04667763 -0.28653672
0.10908069 -0.1072962 -0.1623773 -0.16131756 -0.12473048 -0.08142775 0.09865062 -0.1113292
-0.13124928 0.10247129 -0.030684223 0.07029768 0.101866975 -0.024716552 -0.16788895 -0.10890598
-0.04942087 0.050094523 0.15922207 0.021962363 0.0022906573 0.23434633 0.029802648 -0.04838144
-0.096237175 0.03482345 0.054042734 -0.034407593 0.13081332 0.089173906 -0.12102337 0.1270086
0.04321447 -0.03405018 -0.15967284 -0.12757087 0.10399787 -0.048038043 0.068431616 -0.10305199
0.015925512 0.066132315 -0.06837752 -0.055909365 -0.17369385 0.12536383 0.14581677 -0.04153767
-0.1534697 0.11466458 -0.13258095 0.22096495 0.038027752 0.053336814 -0.070164636 -0.14403395
0.05810523 -0.09577381 -0.033344734 0.1046833 -0.07235205 0.05972052 0.06815439 0.08875621
0.12886015 -0.08338113 0.15475014 0.29018623 0.018968608 0.11835428 -0.100720614 -0.14760676
-0.1725702 -0.098565914 -0.17567855 0.18983397 0.052848574 -0.0286419 0.12836978 -0.24924503
-0.032773435 0.04547804 0.013272397 -0.024763687 -0.025770847 0.25716043 0.004527275 0.21863711
-0.22980551 0.037152942 0.048238404 0.090752766 -0.27092502 -0.09067008 0.037204992 -0.042260654
-0.022060206 -0.11962478 0.17589878 0.13885316 0.07678612 0.13203868 0.15698567 0.22415543
-0.08732917 -0.03887237 0.07581122 -0.36629537 -0.22244889 -0.07486464 -0.0037595443 -0.06775733
0.07216519 -0.17052704 0.107839964 -0.089922585 -0.016497875 0.0027454968 -0.21882042 0.061259143
0.016809572 -0.19939107 0.26641256 -0.0068364358 -0.03373666 0.14862545 0.03573234 -0.0063466113

lstm.bias_hh_l0 f4 [256]
00000000: 26bd 9c3d 37be 043d b959 073e 08fa 313e
00000010: d40e 5f3d 6e28 b23c 569a 6f3d 0f73 b73c
00000020: b39b 4dbd 5fcb 15be c20f d43c 4703 d03d
00000030: 35e0 0ebc 0e21 38be c09c 113c 629a 02be
00000040: a3c8 8bbd 3b6a 99bd 2524 26bd 6d21 cbba
00000050: fee6 f03d c2ca 1a3d 2215 a83d 5593 243e
00000060: 8932 dbbc e6fe 463e f9a7 9c3b db34 be3d
00000070: 24a9 3dbe 5651 fb3d 25e2 4d3e 974b 523d
00000080: 7131 e03d b281 adbc 7a33 463e c048 94bc
00000090: f8a2 f63d ff4d 6ebb 7583 3bba 5988 993e
000000a0: 3d2a 1fbe c787 61bd 08ee 223e df5a 32be
000000b0: b4e2 4dbc 1b3e eb3d 7458 073e d44b b2bd
000000c0: 44ba f23b 4257 46be 8168 b6be a634 80be
000000d0: 21e9 0a3d 62e9 9ebd c468 39bd d08b a3bd
000000e0: d2b2 dabd bee8 2fbe 24c7 5c3e 9e2d 14be
000000f0: dc09 75be 0e37 bdbd c2cc 0d3e 8103 52be
00000100: 37c2 0ebd 2f08 14bd 3804 fabd 0f6d 04be
00000110: e781 f2bd 86f9 8dbd 48b5 93bd 36e7 04be
00000120: 88f1 ccbd c82a b6bd f286 3ebd 6e1c 0e3d
00000130: dfda 8dbc 7c27 95bd fb63 44be 5e2c 9bbc
00000140: 76ab 9ebc 638f 66bd dccf 2a3d b9b9 1b3e
00000150: bfd6 093e 0342 3cbe 7c78 d83d 3d66 b6bd
00000160: eb9a 39be 5aa1 ca3d abab a03d 3e2b 3fbd
00000170: dc76 b7bd 7ecc 2fbe c955 3ebc 7157 54bd
00000180: 12da 1bbb d5e3 01bd 2c39 d3bd 3392 473e
00000190: 755a 6abe 361f 04bd 4f3f 5cbd f2a0 0f3e
000001a0: 3280 35bc 5e2a 19be 08bd 58bd 3069 3c3e
000001b0: f357 23be 5893 19bc a4af 1fbd eedd 17bd
000001c0: 33e2 b93c 741e 163d 1d2f 283e 5caa 33bd
000001d0: 82da 933c dcc0 dc3d 5c6b 00bd 9bdf 22bd
000001e0: 84ab 45bd 0940 253e 6980 133e a5ae 09be
000001f0: 7045 4abe 3d9a 96bd a897 1b3e ccc4 1fbe
00000200: 7c2e 8f3d c253 a2bc 2f53 04be 740a 9b3d
00000210: e990 9d3d ffd8 523d 2697 efbd 5d2d 50bd
00000220: 8fb0 16bd 4552 eb3b 6fef 263e ac38 5f3d
00000230: dda8 ba3d 4151 2b3e d54d 27be c274 1c3d
00000240: f709 803d 9fa4 703e 5477 e73d 9860 cebd
00000250: 1171 4a3e 3817 7c3d d636 01be 8d1d 0abe
00000260: 00ae 003d 21d3 80bc 8123 3b3d 1c29 d03d
00000270: 912d e3bd 825b 413e 0096 00be fdd1 14bc
00000280: 5a02 97bd 8e7f 9fbd 5198 173d 953e 4fbd
00000290: 317e 35bc 2f26 d9bb a8f7 243e 4623 ecbd
000002a0: e0b6 283c 3095 2e3d b16f d93c 36dd 213c
000002b0: a778 04be 9ed0 cbbb cb61 003e c0c3 00bd
000002c0: 1110 16bd c8ea 913d d8ab 04bc 0530 993d
000002d0: da6b ee3d 89ab f73d 18ab babc 6bf4 5ebe
000002e0: ba40 cd3d 63fc e4bd ad10 e63d 4d60 febd
000002f0: 48e6 68bd 1849 0d3e 6f82 573e add4 4b3e
00000300: e7fb 4f3d 38a1 473c 027f f03d eb7d 113e
00000310: fbac cebd 1f56 d73d 1fbb 33bc a04c 0fbe
00000320: 2fe3 cebd e420 173e 573d 3dbd a4e3 cb3c
00000330: 56c9 1cbd c84f 303d c4cd 9f3d 8b24 5bbe
00000340: d62f 71bd f62f 873b 4b1a e03c 7bb0 c7bc
00000350: 866f b43b 3263 3d3e 5f04 87bc 0abc 1f3e
00000360: 25df d7bd aa29 11be cefc fbbd 4e4e d0bd
00000370: 2a2c 8bbe b023 0f3e c4b9 723e fff2 c03d
00000380: aada 113d b4ae 873c 4a24 563e 057f 0dbd
00000390: 3ae2 adbd 3afb 1c3d 7827 1d3d f40e ac3e
000003a0: 0067 a8bd a928 20be 9cf0 22bd ae1f 6dbe
000003b0: a368 39be 40ff e83b 3853 bebc 1e8d 48be
000003c0: 8f97 023d 7065 10be 66b8 03bd 7acf a43d
000003d0: a5e0 17be 5fb2 a83d 1878 80be aae6 203e
000003e0: 7240 49bd 1137 b1bc fb78 283d 4018 043e
000003f0: 6e02 29be c3ff bf3d 6fc1 e73d 43a5 bebd
0.07653265 0.032407966 0.1321782 0.17380536 0.0544575 0.021747794 0.058496796 0.022393731
-0.050197314 -0.14628361 0.02588642 0.10156875 -0.008720447 -0.1798136 0.00888747 -0.12754205
-0.06825378 -0.07490965 -0.040561814 -0.0015497633 0.11762808 0.03779102 0.08207156 0.16071828
-0.026757495 0.19433174 0.004780766 0.09287425 -0.18521553 0.12271373 0.20105799 0.05134162
0.1094693 -0.021180008 0.19355574 -0.018101096 0.120428026 -0.0036362407 -0.00071530725 0.29986838
-0.15543456 -0.055061128 0.15911114 -0.17417477 -0.012566257 0.11486455 0.13217336 -0.08705869
0.0074074585 -0.19369224 -0.35626605 -0.25040168 0.033913735 -0.07759358 -0.045265928 -0.079856515
-0.106786385 -0.17178628 0.21560341 -0.14470527 -0.23929542 -0.092390165 0.1384764 -0.20509149
-0.034853186 -0.036140617 -0.12207836 -0.12932228 -0.11841183 -0.069323584 -0.07212311 -0.12978825
-0.10007006 -0.088948786 -0.046515413 0.03469508 -0.01731628 -0.07282922 -0.19178765 -0.018942054
-0.019368868 -0.056289088 0.041702136 0.15207566 0.13460825 -0.18384556 0.105698556 -0.08906219
-0.18125503 0.098940566 0.07845243 -0.0466721 -0.089582175 -0.17167851 -0.011617132 -0.051841203
-0.0023781103 -0.03171142 -0.10313639 0.19489364 -0.22886069 -0.032256328 -0.053771313 0.1402624
-0.011077927 -0.14957568 -0.05291465 0.18399501 -0.15951519 -0.009373508 -0.038985863 -0.037076883
0.022690868 0.036650136 0.16424222 -0.04386364 0.018048529 0.107789725 -0.031352386 -0.039764028
-0.048259273 0.16137709 0.14404453 -0.13445528 -0.19753051 -0.07353637 0.15194571 -0.15602416
0.06991288 -0.01981533 -0.12922357 0.07570353 0.07693655 0.051476475 -0.11698751 -0.05082451
-0.036789473 0.007181438 0.16302274 0.054497406 0.09114239 0.16730215 -0.16338284 0.038197286
0.06251901 0.23500298 0.11302057 -0.100770175 0.19769694 0.06154558 -0.12618575 -0.13487835
0.03141594 -0.015725674 0.045688156 0.10164091 -0.110926755 0.18882564 -0.1255722 -0.009083268
-0.073734954 -0.07788001 0.037010495 -0.050596792 -0.01107745 -0.0066268663 0.16110098 -0.115301654
0.010297507 0.042622745 0.026542516 0.009879401 -0.1293665 -0.0062199375 0.12537305 -0.03143668
-0.036636416 0.07124859 -0.008097611 0.07479862 0.11641665 0.120932646 -0.022786662 -0.21772926
0.10022111 -0.111809514 0.112336494 -0.12420712 -0.05686024 0.13797414 0.2104585 0.19905348
0.050777342 0.012184434 0.11742975 0.1420819 -0.10091587 0.10514473 -0.010969906 -0.13994074
-0.101019256 0.1475864 -0.046201076 0.024888821 -0.038277946 0.043044835 0.078029186 -0.21400659
-0.05888351 0.0041255904 0.027356287 -0.024376145 0.0055064587 0.18494871 -0.016481576 0.15599075
-0.10540608 -0.1417605 -0.12304078 -0.101711854 -0.27182132 0.13978457 0.23703676 0.09421348
0.035608925 0.016562797 0.2091228 -0.034544963 -0.08490415 0.038325526 0.03836772 0.33605158
-0.08222771 -0.1564051 -0.039780244 -0.23156616 -0.18106322 0.0071105063 -0.023233041 -0.19585082
0.03188282 -0.14101195 -0.032158278 0.080473855 -0.14831789 0.082371466 -0.25091624 0.15712991
-0.049133725 -0.021632703 0.041131 0.12899876 -0.16504833 0.093749546 0.113161914 -0.09308865

lstm.weight_ih_l1 f4 [256, 64]
00000000: 06d0 8dbe 4c15 003e 7e07 583e 0533 0e3e
00000010: 6bd9 f1bd b764 a93e 4ab0 71be 876d e439
00000020: 9bc1 1bbd 8de1 1abe bb95 5fbe dd35 b0bd
00000030: f714 833e 7cb2 c0bc 3d94 f63d ffb5 34be
00000040: bccd 5abe 77d3 593e 1c86 f339 b1d1 e2bd
00000050: d12b 84be 923f 87be c101 65be 1289 a6bd
00000060: 85b7 4fbe d318 513c 3fbe 8fbd fb65 133d
00000070: c56c 76be 17f6 1f3e f7bc 37bd 3d50 aebe
00000080: ac4a 833d 3ef9 0cbc 163d ee3d 2294 2b3e
00000090: 46a7 d7bd 187a 0d3e 34f0 adbe e741 0abe
000000a0: 0f6a 8b3c fbda 20bd 036f ab3d d78d 413e
000000b0: 61fa c9bd 1a7d 6c3e abfe e83d 2bae e13c
000000c0: 0003 613e 46e3 f1bc e156 c0bd 16e0 93be
000000d0: 3477 9abc 0c23 133e a9ac f2bd ba04 4cbd
000000e0: 1b59 abbd 6717 75bd e149 333c bbb6 113e
000000f0: c9ec d9bd b707 77bd d21a 4d3d 52ea 3fbe
00000100: f7fe a8be d0c6 6b3e 2ae1 ac3b fcc4 823e
00000110: 38fb 17be a3ee 393d dcb1 5ebe 2681 2cbd
00000120: 80d9 553d a6cc 0bbe cb1d 823d bd0b d43c
00000130: d6a1 753e 2510 69be c397 9d3d 1fc9 48be
00000140: 3f37 d73d 99d8 353e 515c e73d 60a4 8d3e
00000150: 2347 bbbe 8eb2 adbc ff64 8e3c 47ce 713c
00000160: 6991 80bd e5c3 75be ad02 f7bd bd40 513c
00000170: 54c1 cdbe 1b70 433d d09c b0bc acea 9abe
00000180: 1092 1ebe 758e 70be 9be1 563e ad92 a1bd
00000190: 6230 4f3c 0110 f5bd 5449 cdbe 4b92 8dbe
000001a0: 43be 933e 12d0 203d 39bb 02be ef7d a93e
000001b0: cfd8 063e 4624 413d 89f1 3e3e 7274 efbd
000001c0: e8d7 863e 633c 28be e5a4 37bd 4fe1 ffbd
000001d0: e6bf 4c3d 0437 8b3e 8708 63bd f15f 093e
000001e0: bafd 80be 1b99 9fbc 5cf9 1ebe 1e39 abbb
000001f0: 8960 fbbd b57f 5abe 5295 153e 7556 16bd
00000200: 02c6 6f3e 0538 583e a0ad 53bc 5b53 0f3d
00000210: a175 673d 722c 2e3e c752 96bd fd6c 96be
00000220: c618 35be a84a b13d 4910 033e eb93 9c3e
00000230: dfcd 1b3e 1a41 94be 1045 c33d c105 23be
00000240: dc99 54bd bb00 133c 2021 db3b bb25 053e
00000250: 13c4 523c 44a9 b73d 83da b0bd 5690 4d3e
00000260: efac 743e d554 8fbd 599f 583e 214e 1e3e
00000270: 2a5b 483c 2025 073e 6bb9 6c3d 249b c53d
00000280: 069a fc3d 4538 66be 1803 a7bd 92fa ed3d
00000290: 0731 533d df0e 3cbe eaac 3bbe 01b5 663d
000002a0: 8044 c6bd ebc0 9d3b a6af 4e3e 4eeb 4a3e
000002b0: 207e 643d 03cb 023b 7337 ea3d e195 d2bd
000002c0: 5aec 823d 9251 21be 1934 a33c 3099 fa3a
000002d0: 494f 113e 9e9d 9cbd 182a 8a3d 7313 a9bd
000002e0: 29ca e2bd 08ad c8be 2136 b7bc f96a 823c
000002f0: 89c5 76be e4c6 293d 5736 673e 51b8 5cbd
00000300: 3c54 82be 42c5 fc3c 479b d23c 0632 853b
00000310: fabf c7bd 5a4c 983e 3d9b 5abe f319 82be
00000320: 1772 133e 9a0c 263d f2cc c0bc 9a81 b23d
00000330: 0fc7 853e d159 7ebd 2e7e 413e b0f9 dfbd
00000340: b37c c13d 7aa0 e0bd 2e22 ab3c 5612 3b3d
00000350: 6233 29be 1764 9ebe ab98 cebc 1982 8abd
00000360: 5dee 20bd fa01 0d3e e1cc aabc 463c 313e
00000370: 6def febe f917 5b3e b14f 4bbd d3aa 0dbe
00000380: e669 94bd bd7c f7bd 7657 1dbe 1b74 f9bd
00000390: 31f8 78bc d5f5 61be c4e1 2bbe bd30 c8be
000003a0: 4f81 1d3e 4b73 253e b9c3 f23d 075a 173e
000003b0: 8fd4 9d3e 5cc6 4a3d 82bb 8d3e 1ecc b7bc
000003c0: 85a7 46bd 2692 f03d 6f3a 4d3e 28c0 4bbe
000003d0: 0ee8 133e 0612 2bbe 6df5 30be 970d b5bd
000003e0: 1640 afbe 632a f53c f5d9 c33d 43ca 453b
000003f0: 0a75 56bd af8d 54be 5f9d 183e 43f7 b3bd
-0.27697772 0.12508124 0.21096608 0.1388665 -0.11809047 0.33084652 -0.23602405 0.00043569153
-0.038026433 -0.15125103 -0.21834461 -0.086040236 0.25601932 -0.023522608 0.12039993 -0.17647551
-0.21367544 0.21272074 0.0004644849 -0.11075152 -0.2581468 -0.26415688 -0.2236395 -0.08131613
-0.20284851 0.012762266 -0.070187084 0.035985928 -0.2406493 0.1562122 -0.044857945 -0.34045592
0.06410727 -0.008604346 0.11632745 0.16755727 -0.10529952 0.13816106 -0.33972323 -0.13501702
0.017018346 -0.039271336 0.08370783 0.18901764 -0.09862209 0.23094597 0.11376699 0.02754887
0.219738 -0.029527318 -0.09391571 -0.28881902 -0.018855669 0.14368838 -0.118493386 -0.049809195
-0.08366605 -0.05983677 0.010942907 0.14229862 -0.10640866 -0.06031009 0.050074406 -0.1874173
-0.33007023 0.2302506 0.005275865 0.25540912 -0.14841926 0.045393597 -0.21747535 -0.042115353
0.052209377 -0.13652286 0.06353339 0.025884503 0.23987517 -0.22760065 0.07694962 -0.19607972
0.10508584 0.17758407 0.11296905 0.2766447 -0.3657771 -0.021203306 0.017382143 0.014758653
-0.06277735 -0.24000509 -0.12061057 0.012771782 -0.4018656 0.047714334 -0.021559149 -0.30257165
-0.15485406 -0.23491843 0.20984499 -0.07889304 0.012645813 -0.11965943 -0.40095007 -0.27650675
0.28856096 0.03926093 -0.12766732 0.33103892 0.13168643 0.047153734 0.18646826 -0.11692132
0.26336598 -0.16429286 -0.04483499 -0.12494146 0.049987696 0.2719041 -0.055428054 0.13415505
-0.25193578 -0.019482186 -0.1552481 -0.0052253148 -0.12274272 -0.21337779 0.14607742 -0.036703546
0.23415378 0.2111512 -0.012919813 0.034991603 0.056508664 0.17009142 -0.07340007 -0.29380026
-0.17685232 0.08656818 0.12799181 0.30581602 0.15215252 -0.2895592 0.09534657 -0.15920164
-0.051904544 0.008972342 0.0066872984 0.13002674 0.012864131 0.08967832 -0.08635428 0.20074591
0.23894094 -0.06998602 0.21154536 0.15459491 0.012228766 0.13197756 0.057794016 0.09648731
0.12334065 -0.22482403 -0.08154887 0.11620058 0.051560428 -0.18365048 -0.1832768 0.056324963
-0.09681034 0.0048142574 0.20184192 0.19816324 0.055784345 0.001995743 0.11436357 -0.102824934
0.06392737 -0.15753773 0.019922303 0.001911914 0.14190401 -0.076472506 0.0674631 -0.08255663
-0.11073715 -0.39194512 -0.022364678 0.01592015 -0.24098791 0.041449443 0.22579323 -0.053886715
-0.2545489 0.030855779 0.025708808 0.004064801 -0.097534135 0.29745752 -0.21348281 -0.25410423
0.1439899 0.04053936 -0.023535226 0.08716126 0.26128432 -0.062097374 0.1889579 -0.10936296
0.094476126 -0.109681085 0.020890322 0.045671783 -0.16523507 -0.30935737 -0.025219282 -0.067630954
-0.03928982 0.13770285 -0.020849647 0.17308149 -0.49792042 0.21395864 -0.049636547 -0.13834696
-0.07246761 -0.12084339 -0.15365395 -0.121803485 -0.015195892 -0.22066434 -0.16785342 -0.39099684
0.15381359 0.16157262 0.118537374 0.14780436 0.30826232 0.049505576 0.2768212 -0.022436198
-0.048499603 0.117466256 0.20041822 -0.1989752 0.1444399 -0.16706094 -0.17281123 -0.08840483
-0.3422858 0.029927438 0.095630564 0.0030180372 -0.05235771 -0.20757173 0.14903782 -0.08787396

lstm.weight_hh_l1 f4 [256, 64]
00000000: 1d46 bebc 6bc5 cfbd db5e 1bbe 5f5b d4bd
00000010: 0451 bf3d a3e6 443e 0d37 a6bd 0a2e 2c3c
00000020: 4cff 873d ff0b fa3d 3693 42bd 93f6 d3bd
00000030: 9ade bb3d e9e5 6b3d 59b4 913d ca44 94bd
00000040: ee89 153e 25e7 4b3e 5e70 333e f713 043e
00000050: 059c 333d 0df0 0c3e 0eb7 41bd 9eec 2bbd
00000060: 94de 1cbe 79a5 d43b 8df9 fe3d 5099 983d
00000070: c98d 44be 6194 abbd be01 f7bc 0232 133d
00000080: decd 01bd 64b2 e7ba 55b2 b33d 476c f23d
00000090: b6ce e3bd cd9b d13d 26a6 373d 2942 393e
000000a0: fec5 393d 3c90 d7bc 526e 15be 0db2 c5bd
000000b0: da68 1cbd 5104 ea3d d2a5 cfbd faaf e43d
000000c0: 8c9e 8cbd fa6d 113c a0a6 eabb 16ec 733e
000000d0: 84ff 113e f72b 693e 3675 0cbe a29d 77bd
000000e0: b564 413c add3 b5bb 41cf 05bc fcfb 733d
000000f0: d16a ce3d 56ad 85bd 9b5e 25be 43c1 03be
00000100: f7a2 1e3d a9c9 efbd aa53 d7bd 3134 19bd
00000110: c28c c7bd 2e14 22bd 6941 ffbd bf21 033e
00000120: 55e0 babd 0599 7b3d 4749 93be 99ab 2dbd
00000130: 7ba3 a53d e1ba 3ebd 098b bf3d c37c c53d
00000140: feaa 04be 2ac1 ad3c 1ea9 1d3d 2372 223d
00000150: 4303 cabd 84ac 4b3e 0a46 223e 6ed8 19be
00000160: e3a1 1ebd fe77 613d cdb0 8e3e 2ae0 ecbd
00000170: 4b30 c0bd 1b0f 2f3d 989f 98bd 1ba0 f5bd
00000180: 40b3 43be 29c7 013c a6e9 a3bb f174 b13d
00000190: 3af9 0cbe dfcd 523e 4d76 9bbd 4953 a639
000001a0: 68cd 253e 19b3 ec3c 0e32 13be 4ec9 d4bd
000001b0: f356 bcba ee81 c03b 9b65 85bd d83e e3bd
000001c0: e1d4 14be c19d 983c 2597 22be 930f 43bd
000001d0: 0355 cc3d 6e30 223e 0e6f 373e 3f5a d43d
000001e0: 1aa8 e93d 14af 74bd a3e2 03be 71a2 cc3c
000001f0: 27c0 ff3d 3cec 7a3d aec8 823d 838d 98bd
00000200: 9a8d a63d 1192 fa3d 0b2e 363e 31f4 703d
00000210: 7406 783d 1819 bd3d 0bcb febb 7ee4 9bbd
00000220: d4e1 92be d534 123d 60bd 99bd ef79 4f3c
00000230: 2afd eebb b122 ed3d 0f9e a43d 98cf f8bd
00000240: 6001 34bd 4f45 83bd 3ba7 85bd a264 ba3c
00000250: 4321 84bd 1e51 923d 6860 f83d 9d88 01bd
00000260: 6d51 a1bc c3e4 1cbc 1231 91bb 4851 283e
00000270: 7d9e e1bc 3554 99bd f718 073c db4d c6bd
00000280: cb03 f33d 12a8 d13d a6ae 65be 7aac 40bd
00000290: 3762 c3bd c10f 3a3d 1033 153e 14a7 003e
000002a0: ba62 a53d 5daa 0fbd 1e9f c63c bcff 1cbe
000002b0: e6d3 8a3e fc91 903c 0b9c 953e 84e5 7f3d
000002c0: 1d48 31bd 90d4 fc3d 0d7a 303d c0be db3c
000002d0: e4a0 f83d eaeb 253e c3e5 a83d 9408 933b
000002e0: c194 323d c349 f53c e74f b33d 1128 0bbe
000002f0: ce61 a13d bfbe bf3d 48d4 bc3d 7bec 263e
00000300: 26bf c93d 5626 15be dc8e fcbd 6023 6f3d
00000310: da67 003e 44af d2bd c2dd 46be 9e15 1b3e
00000320: fbfe 2d3d ecf2 5a3e 60dc 54be a98c 61be
00000330: f350 703e c856 13be ece5 a03d a656 113e
00000340: 507b b93d 47ec c53c 2789 023e fe81 87bd
00000350: fbfc 8cbd c77c 42bd 1a7e 123e 76eb 543d
00000360: 701c 03be 9344 2d3e 4421 863e cdd9 163e
00000370: 7c18 f23b 41c0 853d 1849 15be 727d 1f3e
00000380: 3a62 b23d b7bc 2b3a b8ad b43c de2d 3c3d
00000390: 4bd5 a7be 69fe 1cbe dcad b53d 692e 8b3e
000003a0: 4610 433e 72d2 3f3d e2cb bcbd 6613 063e
000003b0: e2a9 033d 6596 f43d 2179 26bd d27b 3c3c
000003c0: 6d7e 163e e7e5 ab3d 1cfc 1abe 64aa f53d
000003d0: 6f60 5c3e 7389 593d e8ef 753c c9e5 07bd
000003e0: 1fe2 333e 332c 6b3d 63ff 82bd 91b5 f33a
000003f0: f7dc 843e 4c1e efbd e0d8 39be e0c7 11be
-0.023226792 -0.10145076 -0.15172903 -0.1036899 0.093416244 0.19228606 -0.08115969 0.010509023
0.06640491 0.12209319 -0.047503673 -0.10349765 0.09173317 0.057592306 0.07114477 -0.07239683
0.14603397 0.19912393 0.17523333 0.12898241 0.043849964 0.13763447 -0.047293715 -0.041973703
-0.15319282 0.0064894524 0.12449942 0.07451117 -0.19194712 -0.083779104 -0.030152198 0.035936363
-0.03169047 -0.0017677066 0.087742485 0.118370585 -0.11123411 0.10234795 0.044836186 0.18091644
0.045354836 -0.026313893 -0.14592865 -0.09653101 -0.03818593 0.114266045 -0.101390496 0.11166377
-0.06866178 0.008876318 -0.0071609765 0.23820528 0.14257628 0.22770678 -0.13716587 -0.060453065
0.011803796 -0.0055489154 -0.008167089 0.059566483 0.10078967 -0.06527202 -0.1614937 -0.12866692
0.038729634 -0.117083855 -0.105140045 -0.03740329 -0.09743644 -0.039570026 -0.12463648 0.12805842
-0.09124819 0.061425228 -0.28766844 -0.042399976 0.08087822 -0.04656494 0.09352691 0.09642937
-0.12955853 0.021210272 0.03849136 0.03965963 -0.098639034 0.19890028 0.1584703 -0.15023968
-0.038728606 0.055046074 0.27869263 -0.115661934 -0.09384211 0.042739015 -0.07452315 -0.11993428
-0.19111347 0.007921019 -0.0050022183 0.08664883 -0.13766947 0.20586346 -0.075909235 0.0003172404
0.16191638 0.028893994 -0.14374563 -0.10389958 -0.0014369175 0.005874864 -0.0651352 -0.11095971
-0.14534332 0.01862991 -0.1587797 -0.047622275 0.09977152 0.15838787 0.17913458 0.103687756
0.11409016 -0.05973728 -0.12879424 0.024979802 0.12487822 0.061260447 0.06385933 -0.07448866
0.08132477 0.12234891 0.17791001 0.05882663 0.06055303 0.09233302 -0.0077756695 -0.07611941
-0.28687918 0.035694916 -0.075068235 0.012663349 -0.007293363 0.115788825 0.0803796 -0.1214897
-0.043946624 -0.06409704 -0.06526037 0.022753064 -0.06451657 0.07144378 0.12127763 -0.031624425
-0.019692147 -0.009576025 -0.0044308985 0.16437256 -0.027541393 -0.07486764 0.008245698 -0.096828185
0.11865958 0.10237135 -0.22429904 -0.047039486 -0.09540217 0.04542518 0.1457026 0.12563735
0.08075471 -0.03507458 0.024245795 -0.1533193 0.2711479 0.017647736 0.29220614 0.062474743
-0.043281663 0.123452306 0.043085147 0.026824355 0.121400625 0.16203275 0.082469486 0.0044871066
0.043598894 0.029942399 0.087554745 -0.13589503 0.07879983 0.09362554 0.09220177 0.16301148
0.09850912 -0.14565405 -0.12331936 0.058383346 0.12539616 -0.102873355 -0.19420531 0.15144965
0.042479496 0.2138173 -0.20787191 -0.22026314 0.2346838 -0.14388573 0.07856354 0.1419321
0.09056723 0.024160517 0.12747632 -0.06616591 -0.0688419 -0.04748228 0.14305916 0.051982366
-0.12803817 0.1692069 0.26197255 0.14731522 0.0073881727 0.0653081 -0.14578664 0.15575197
0.087101415 0.0006551253 0.022055492 0.04594218 -0.32779917 -0.15331425 0.08871052 0.27183846
0.19049177 0.046831556 -0.09218575 0.13093337 0.032144435 0.11942748 -0.04064286 0.01150413
0.14696665 0.0839346 -0.15135235 0.1199539 0.21521161 0.053109597 0.015010811 -0.033178125
0.17566727 0.0574152 -0.063963674 0.001859354 0.25949833 -0.116757005 -0.18149137 -0.14236403

lstm.bias_ih_l1 f4 [256]
00000000: 5714 3b3e 6a5a ed3c b2d9 b33d ea54 853e
00000010: e843 76bd 6dd1 7b3e c7c6 563d 48c8 cbbd
00000020: 541e 69bd 7290 c43d 674b a3bd 72d5 063c
00000030: 42b8 123e 75c9 efbd 69cf e63d d246 033d
00000040: 7da6 5e3d dd3e 383d 41f7 0b3e 056a 4b3e
00000050: eb14 ca3c 425b 483d fe93 34be 7110 023d
00000060: 3a73 3b3e e8a1 11be cbf7 9f3e d23e 3abe
00000070: eada 6fbd aadd 57be 5dfa 19be c777 06be
00000080: fb08 563e 68e8 3cbe fc5f d4bd 4c88 91bc
00000090: e8fb 70bd f215 e13d d6d2 093c 84de 413e
000000a0: e327 cb3d d754 163e 51e9 c0bd a2e6 453c
000000b0: 3c2b 9e3d 692a 1e3e 38fe 43bc b668 e6bd
000000c0: 919c 063e e632 7ebd 8d1c 9c3d f638 613e
000000d0: 4b7b 21be baae 253e 0b68 96bd 6bbc 043e
000000e0: 5fa7 e73c edf9 523e 8d27 c4bb 68a9 003d
000000f0: 585a aebd dcbb 943d fc3f 223d 0681 ed3c
00000100: 6d38 04be 34ce 18be ee5e a4bd 9a3a 90bd
00000110: 1ec9 04be 9e35 c3bd 62a8 3fbe bcce 523d
00000120: e7a5 93be 9f50 0e3d 25cc 3ebe e31f 1fbe
00000130: 04a0 9bbd a648 3fbd 5ef4 86bd 380a 39be
00000140: b3e9 7cbd f308 25bd c6da 3b3d 6f50 4dbe
00000150: 794a 98bc a6c4 fe3c 96b0 acbb f79d c4bd
00000160: 10f3 4cbe 0d30 81be 65a7 31be 7318 61be
00000170: 0983 93be aaf1 d5bd fd7e 58bd d17a 2bbe
00000180: 344d a1bc 116f fbbd 9256 3bbd 0b2f 38bd
00000190: 746d a0be 390f 76be 4f88 873e 7d3d ecbd
000001a0: 8433 79be bdad 88be bfff 49be 0b3b 59be
000001b0: 2aa5 343e f0b9 a3be 69b5 e0bc 93e6 34be
000001c0: 92b9 b43d 9432 19be 8002 bbbd a6e4 bbbe
000001d0: 0e29 08be 8672 f1bd 6f32 92bd df29 dbbd
000001e0: ad3e babe 770c 08be ff21 29be 3d4e 60be
000001f0: ed72 45bc 8d07 eabd ac7b 48be 08e9 91bc
00000200: 98df 863d 349a aabd 5811 eabd e064 df3c
00000210: d99b 02be 59f6 9fbd 5516 4abd 0ed1 a2bd
00000220: c0d0 373d b41b c83d e29e 88bd daac 053d
00000230: 59f0 de3d 9539 37bd e33c 923c c57d 35bc
00000240: 7569 173d 0e32 bf3a 2cdc 6ebd 8bed 023c
00000250: 2468 333d 7a33 b53d 5017 a23d 4288 093e
00000260: 511f 4abd 0763 e6bc 4901 a4bd 6688 55bd
00000270: 4cf6 b03d 6627 c53c ab69 b2bd 0979 e2bd
00000280: 24e8 b5bc 2e5b 2ebd f81c 09bd 63e5 653d
00000290: b297 e6bc 1b6e a73d 4228 89bd 6399 6b3d
000002a0: 840f 713b 46ef a33d 0c30 c6bd da73 70bc
000002b0: b73d 1ebd 1066 c4bc f1a0 083e 0e6a 523b
000002c0: 69f6 87bd b3d5 7a3c eafc 28be df37 b13d
000002d0: f6b9 233d 0030 ac3d 4af1 ccbd d0b3 fd3d
000002e0: 047f b33c 3b2a db3c a0ba d7bd 32c0 b5bd
000002f0: 48e0 013d c776 e1bd f380 833d 5428 9cbd
00000300: 20ad 063e c861 85bc 6fb0 103e a16e bf3d
00000310: 89c6 263d fe0d 043e 416c 373e f9eb 25be
00000320: 52fe 173d 8b17 f73d 40b0 0b3d c5a9 10be
00000330: 33fe 63bc af6d e5bd 0271 82bc b927 90bd
00000340: dd37 e0bc 6a21 56bd 0201 bc3d 05d9 7b3e
00000350: be2f c23c d915 863d 817f 4abe 3f24 ca3b
00000360: 5af7 463e 7bb2 b9bd cab7 dd3e 6db2 93bd
00000370: c35b 4fbe bc12 52be baaf 9dbe ee0c 1fbe
00000380: f7ff 723e 4a8c 2bbe 5dd1 6bbc 1f36 ba3d
00000390: fff7 55be e126 ac3d 09d0 b83a bc1d 183e
000003a0: 1979 6f3d a088 823d ef06 bbbc 3b4b 6fbd
000003b0: c0b9 74bd fd25 1a3e b06f d63c 2301 f9bd
000003c0: e0e5 c0bd 4f3e 17bd 46b6 503e 42d2 e83d
000003d0: 7544 2dbe 254e cc3d 23b3 9a3d 7546 f13d
000003e0: 3c3b dcbd 55f1 d83c 4294 b13d b3b3 003e
000003f0: 3341 1ebd de8d 69bc e8be 2abe f692 7c3d
0.18269478 0.028973777 0.087817565 0.26041347 -0.060123354 0.24591608 0.052435663 -0.0995031
-0.05691369 0.09597863 -0.07973366 0.0082296 0.14328101 -0.11708347 0.11270029 0.03204996
0.054357994 0.044981826 0.13668539 0.19864662 0.024668178 0.048915155 -0.1763458 0.03175396
0.18305674 -0.14221919 0.3124374 -0.18188027 -0.058558382 -0.21080652 -0.15036912 -0.13131629
0.20901863 -0.18448031 -0.1036987 -0.017765187 -0.058833987 0.10990514 0.008412084 0.18932539
0.09919717 0.14680801 -0.094195016 0.012078913 0.0772309 0.15445866 -0.011962466 -0.11250441
0.13145663 -0.06206026 0.07622633 0.21994385 -0.15769689 0.16179934 -0.07344063 0.12962501
0.028278051 0.20603152 -0.00598616 0.03141156 -0.085133255 0.07262394 0.0396118 0.028992187
-0.1291215 -0.1492241 -0.08025919 -0.07042427 -0.12967345 -0.09531711 -0.18716577 0.05146669
-0.2883751 0.034744855 -0.18632562 -0.15539508 -0.0759888 -0.046700142 -0.06589578 -0.18070304
-0.06174631 -0.040291738 0.045862935 -0.20050214 -0.018590199 0.031099629 -0.005270074 -0.09600442
-0.20014596 -0.25231972 -0.17349012 -0.21981983 -0.2881091 -0.104464844 -0.05285548 -0.1674607
-0.019690134 -0.122770436 -0.045736857 -0.04496674 -0.31333506 -0.24029244 0.26471183 -0.115351655
-0.24336058 -0.26695052 -0.19726466 -0.2121393 0.1764113 -0.31977797 -0.027430253 -0.17666082
0.08824457 -0.149607 -0.09131336 -0.36697882 -0.13296911 -0.11789422 -0.07138526 -0.10701346
-0.36375943 -0.13286005 -0.16516875 -0.21904846 -0.012051326 -0.114272214 -0.19578427 -0.017811313
0.06585616 -0.08330193 -0.11429089 0.02726978 -0.12754764 -0.07810659 -0.049337704 -0.0795003
0.044876814 0.09770909 -0.066709295 0.032635547 0.108856864 -0.04473265 0.017851299 -0.011077349
0.036965806 0.0014587061 -0.05831544 0.007991205 0.043800488 0.08847709 0.07914603 0.13430884
-0.049346272 -0.028123392 -0.080080576 -0.052132033 0.086407274 0.024066638 -0.08711561 -0.11058242
-0.02220542 -0.042567424 -0.033474892 0.056126963 -0.028148506 0.08175298 -0.06697132 0.057519328
0.003678293 0.08004622 -0.09677133 -0.014676059 -0.038633075 -0.023974448 0.13342644 0.003210667
-0.06638796 0.015309739 -0.16502729 0.08653235 0.039972268 0.08407593 -0.1000696 0.12387812
0.021911152 0.026753535 -0.10533643 -0.08874549 0.031708032 -0.11008983 0.064210795 -0.076248795
0.1315198 -0.016281977 0.14129804 0.09347273 0.04071668 0.12895963 0.1791239 -0.16203298
0.037107773 0.12065037 0.034103632 -0.14127262 -0.013915586 -0.11202561 -0.015923027 -0.070388265
-0.027370388 -0.05227796 0.0917988 0.24594505 0.023704406 0.06547136 -0.19775201 0.0061688717
0.19430295 -0.090672456 0.43304282 -0.072117664 -0.20249848 -0.20514959 -0.3079813 -0.15532276
0.23730455 -0.16752735 -0.014393178 0.09092354 -0.20895384 0.08405853 0.0014100085 0.14855093
0.058465097 0.063737154 -0.022830455 -0.058421355 -0.059747458 0.15053554 0.026176304 -0.1215842
-0.09418845 -0.036924656 0.20382032 0.113682285 -0.16920646 0.099758424 0.07553699 0.11781017
-0.107534856 0.026482264 0.08670856 0.1256855 -0.038636398 -0.014255015 -0.16674387 0.06166359

lstm.bias_hh_l1 f4 [256]
00000000: c331 793d 3e67 bb3a 1346 123e 1fae 763d
00000010: 921f 9ebd f3d2 463e cdbe cbbc fc12 7a3d
00000020: 009b 863d 5f80 923d 0acd e0bc 0b8e 253d
00000030: dec2 913c cee2 5c3d cfd1 ec3d 4316 d53d
00000040: b2aa ae3d 74df 4bbc 9fb3 0e3b b7e4 6c3e
00000050: 03fc 6d3d c230 453c 2813 47be f567 953d
00000060: 5931 993e 16d5 7fbd a315 a03e 6446 11bc
00000070: b992 98bd d3c3 56be af66 9dbe e7ca 183d
00000080: c6e5 293e b397 21bc 35b8 0fbe 7b8a 073e
00000090: 718c 75be 0768 f1bc 0f93 903d 1360 95bc
000000a0: 5577 0f3e cf11 6ebd cd59 d6bd b57b 853d
000000b0: e473 d43d 3d5a 9e3e 12f0 5f3d 33ef 9b3c
000000c0: 40a7 ed3d ca81 27be 2ae3 103e fa48 4d3e
000000d0: acb2 32bd 81a0 763d 46bc 7d3d 9d11 693e
000000e0: f2a1 693d abf4 3e3e 3d97 8c3d 2f15 a6bd
000000f0: 3bfe d3bd 7e05 533d b7d0 9dbd 58d7 023d
00000100: d1ae 83be 91aa 07bd 33f0 9cbd fb82 40be
00000110: 548e 30be 714c 3dbe 2b74 1fbe b863 f2bd
00000120: 731b 4cbe f33b 2a3c 29d2 0fbe c8e5 5ebe
00000130: 6efc 2ebe 1576 16be a23f 12be 2b83 a6be
00000140: 9191 47be 4950 dbbd d442 eb3b 5f6a efbd
00000150: 9399 51bc 63b8 95bc 0508 94bd 84ff bbbd
00000160: a94f 84be 340a 16be f7a8 2ebe efec 9fbd
00000170: 544b 83be 5d55 f8bd 51b9 31bd aa7f a8bc
00000180: 50b4 b1bc eb68 d5bd ee65 82bd 383b 543c
00000190: 0578 e7bd 1886 1ebc 303a 8e3d c2e1 8ebd
000001a0: a00a 55be e375 68be 900c 3dbe a581 66bd
000001b0: 4728 f73c c7e6 07be 9e00 81bd 7acb 5dbe
000001c0: e625 e63c 7bde 14be 28b8 12be 4895 95be
000001d0: 4cd2 2abe 3aa0 69bd 3adf 47bd dac3 89be
000001e0: f54a 33be 0a8a b9bd 587a fcbb d9f2 59be
000001f0: c506 873a 7e17 99bd 1199 a3bd 0845 77be
00000200: 1edd 013c 07be 5b3d b79a fb3b bd4d a1bd
00000210: d55a e73d 532f ab3d eba4 03be 41f9 863d
00000220: 4700 67bb 490f b83b 0bf7 dfbd 4427 803d
00000230: 80e6 66bd c4db c839 e04a e8bb cf73 bcbd
00000240: ac76 153d 0af1 bfbd 64cf 6abb 5846 85bd
00000250: 282b 03be d2d8 203d b551 1e3e 2689 18bd
00000260: 453a 02be b98b a23d 94ba c13d abcc 0cbd
00000270: ef1f 88bd db38 2f3d 807d 5cbd 18cc b43c
00000280: a2cb 9cbd 03dd cbbc 4ff3 f63d 6404 c5bd
00000290: f6d5 88bd cd80 213d f153 5ebd 53b0 8b3d
000002a0: 29a6 03be 8ed6 833d 8f0e 4f3c c134 d8bc
000002b0: 675b 6abd 9d65 613c 10b7 c3bd 02eb 6cbe
000002c0: 3dd3 1b3d 397a 943d 2e85 253c 5410 423d
000002d0: 9613 4dbc cccc c03d 3c0e 113d c9e8 b13d
000002e0: 2c17 073d 1dbc 23bd 361b b23d e32e 0e3c
000002f0: 9567 cfbd 6969 d1bd 82c0 bd3d 96a6 0e3d
00000300: a889 433d 1955 933d 845c b43d 576e 673e
00000310: c4aa bd3c 014b 283e 1705 413e 1b90 28be
00000320: 2a8c ba3d a6d2 b83d 02bf 683c 59e2 ab3d
00000330: cc97 1e3e ddd0 253d a55e d9bd d5b3 873d
00000340: 83ea 973c df78 f63c 97f3 443e 2618 533c
00000350: 79f0 043d 9149 e9bb 5758 a6bd 5892 a5bd
00000360: 5a06 833e b2b3 c6bc 1a7d ed3e 7d5c 70be
00000370: 4be3 f5bd bdee 7fbd 80e2 56be 7d81 52bd
00000380: b478 8b3d a4cd af3b 6984 9f3d 1b02 893d
00000390: b051 85be 04e5 263d 47b6 3ebd 3993 343e
000003a0: 9194 b83d f24a fa3d b56d a5bd ab14 d13c
000003b0: ffbf c03d 130b 293e ed54 873d 851a 38bc
000003c0: 6d05 fc3d 3f9d 0f3d 1a06 0a3e b0be 543e
000003d0: 7e8d 7bbc 1f46 5b3d 5beb 973d 66bd 533e
000003e0: 6304 053c 99e5 793e d041 7f3d 6dfc 9a3d
000003f0: 7b12 f73c 85e5 3e3e a781 25be 3f57 5cbd
0.060838472 0.0014297736 0.14284544 0.06022465 -0.07720865 0.19416408 -0.024871254 0.06105326
0.06572533 0.07153391 -0.02744152 0.040418666 0.017793115 0.053927235 0.11563455 0.10404637
0.08528651 -0.012443412 0.0021774543 0.23134123 0.058101665 0.012035551 -0.19440901 0.07295219
0.29920462 -0.062459074 0.31266508 -0.00886688 -0.0744986 -0.20973139 -0.30742404 0.037302878
0.16591558 -0.009862828 -0.14035113 0.1323642 -0.23979355 -0.02946855 0.07059299 -0.018234288
0.14010365 -0.058122452 -0.10466347 0.06517736 0.10373667 0.3092822 0.05467231 0.019034958
0.11604166 -0.16358104 0.14149156 0.2004737 -0.043627426 0.060211662 0.06194713 0.22760625
0.05703921 0.18648021 0.06864784 -0.08109509 -0.10351225 0.05151891 -0.07705825 0.03194365
-0.25719312 -0.03312165 -0.07663002 -0.18799965 -0.17241794 -0.18486191 -0.15571658 -0.11835426
-0.19932346 0.01039027 -0.14045013 -0.21767342 -0.17088482 -0.14693482 -0.14282086 -0.32521948
-0.19489123 -0.107086726 0.0071795974 -0.116902106 -0.012792963 -0.018276399 -0.07228092 -0.09179595
-0.25842026 -0.1465233 -0.17056642 -0.07808863 -0.25643408 -0.12125657 -0.043389622 -0.020568687
-0.021692425 -0.10420402 -0.06367098 0.012953572 -0.11302189 -0.009675525 0.06944692 -0.06976654
-0.20804834 -0.2270122 -0.18461823 -0.056275982 0.030170573 -0.13271628 -0.06298946 -0.21659651
0.028094243 -0.14537995 -0.14328063 -0.29215455 -0.16681784 -0.05703757 -0.04879687 -0.26907235
-0.17509063 -0.09059532 -0.007705014 -0.21284045 0.00103017 -0.07475184 -0.079881795 -0.24147427
0.007926254 0.05364802 0.0076783556 -0.078761555 0.11296622 0.08358636 -0.1285588 0.0659051
-0.0035247968 0.0056170565 -0.109357916 0.06257489 -0.056372166 0.0003831071 -0.007089004 -0.09201776
0.036490127 -0.093721464 -0.003582918 -0.06507558 -0.12809432 0.039269276 0.15460856 -0.03724017
-0.1271754 0.07936806 0.09459415 -0.034374874 -0.06646716 0.04277883 -0.053830624 0.022069976
-0.076560274 -0.02488566 0.12058126 -0.09619978 -0.06681435 0.039429475 -0.05427927 0.068207406
-0.12856354 0.064374074 0.012637748 -0.026392343 -0.057216074 0.013757137 -0.09556401 -0.23136523
0.03804325 0.072498746 0.010102553 0.047378853 -0.012516877 0.09414062 0.035413966 0.08686978
0.032981083 -0.03997432 0.08696596 0.008678171 -0.101271786 -0.102251835 0.092652336 0.034826837
0.0477387 0.071939655 0.088067085 0.22600685 0.023152716 0.16434862 0.18849598 -0.16461222
0.091087654 0.09024553 0.014205696 0.08392782 0.15487593 0.04048239 -0.10613755 0.06626097
0.018544441 0.030086933 0.19233547 0.012884175 0.032455895 -0.0071193655 -0.08122318 -0.080845535
0.25590783 -0.024255607 0.46384507 -0.23472781 -0.12006243 -0.062483538 -0.2098484 -0.05139302
0.06810132 0.0053650904 0.07788927 0.06689855 -0.26038885 0.04074575 -0.046560552 0.17634286
0.09012712 0.12221326 -0.080775656 0.02552255 0.0941162 0.1650813 0.06607995 -0.0112367915
0.123057224 0.03506207 0.1347889 0.20775867 -0.015353559 0.05353367 0.07417937 0.20677719
0.008118722 0.24403991 0.062318623 0.07567678 0.03016018 0.18642242 -0.1616274 -0.05379414
